…
         neu       0.48      0.70      0.57       515
         sad       0.51      0.47      0.49       274

    accuracy                           0.49      1303
   macro avg       0.41      0.39      0.39      1303
weighted avg       0.48      0.49      0.47      1303

Model: "model_8"
_________________________________________________________________
Layer (type)                 Output Shape              Param #   
=================================================================
input_9 (InputLayer)         [(None, 1, 200, 300)]     0         
_________________________________________________________________
conv2d_24 (Conv2D)           (None, 1, 200, 16)        43216     
_________________________________________________________________
max_pooling2d_24 (MaxPooling (None, 1, 100, 16)        0         
_________________________________________________________________
conv2d_25 (Conv2D)           (None, 1, 100, 24)        3480      
_________________________________________________________________
max_pooling2d_25 (MaxPooling (None, 1, 50, 24)         0         
_________________________________________________________________
conv2d_26 (Conv2D)           (None, 1, 50, 32)         6944      
_________________________________________________________________
max_pooling2d_26 (MaxPooling (None, 1, 25, 32)         0         
_________________________________________________________________
flatten_8 (Flatten)          (None, 800)               0         
_________________________________________________________________
reshape_8 (Reshape)          (None, 1, 800)            0         
_________________________________________________________________
bidirectional_8 (Bidirection (None, 1, 256)            951296    
_________________________________________________________________
dense_16 (Dense)             (None, 1, 64)             16448     
_________________________________________________________________
dropout_8 (Dropout)          (None, 1, 64)             0         
_________________________________________________________________
dense_17 (Dense)             (None, 1, 4)              260       
=================================================================
Total params: 1,021,644
Trainable params: 1,021,644
Non-trainable params: 0
_________________________________________________________________
Total best avg accuracy:  55.075233578681946
