…
         neu       0.48      0.74      0.58       511
         sad       0.53      0.49      0.51       274

    accuracy                           0.49      1294
   macro avg       0.46      0.44      0.42      1294
weighted avg       0.53      0.49      0.46      1294

Model: "model_8"
_________________________________________________________________
Layer (type)                 Output Shape              Param #   
=================================================================
input_9 (InputLayer)         [(None, 1, 400, 300)]     0         
_________________________________________________________________
conv2d_24 (Conv2D)           (None, 1, 400, 16)        43216     
_________________________________________________________________
max_pooling2d_24 (MaxPooling (None, 1, 200, 16)        0         
_________________________________________________________________
conv2d_25 (Conv2D)           (None, 1, 200, 24)        3480      
_________________________________________________________________
max_pooling2d_25 (MaxPooling (None, 1, 100, 24)        0         
_________________________________________________________________
conv2d_26 (Conv2D)           (None, 1, 100, 32)        6944      
_________________________________________________________________
max_pooling2d_26 (MaxPooling (None, 1, 50, 32)         0         
_________________________________________________________________
flatten_8 (Flatten)          (None, 1600)              0         
_________________________________________________________________
reshape_8 (Reshape)          (None, 1, 1600)           0         
_________________________________________________________________
bidirectional_8 (Bidirection (None, 1, 256)            1770496   
_________________________________________________________________
dense_16 (Dense)             (None, 1, 64)             16448     
_________________________________________________________________
dropout_8 (Dropout)          (None, 1, 64)             0         
_________________________________________________________________
dense_17 (Dense)             (None, 1, 4)              260       
=================================================================
Total params: 1,840,844
Trainable params: 1,840,844
Non-trainable params: 0
_________________________________________________________________
Total best avg accuracy:  53.45738887786865
